name: "SRCNN"
layer {
  name: "data"
  type: "Data"
  top: "data"
  include {
    phase: TRAIN
  }
  data_param {
    batch_size: 1
    backend: LMDB
  }
}
layer {
  name: "label"
  type: "Data"
  top: "label"
  include {
    phase: TRAIN
  }
  data_param {
    batch_size: 1
    backend: LMDB
  }
}
layer {
  name: "data"
  type: "Data"
  top: "data"
  include {
    phase: TEST
  }
  data_param {
    batch_size: 1
    backend: LMDB
  }
}
layer {
  name: "label"
  type: "Data"
  top: "label"
  include {
    phase: TEST
  }
  data_param {
    batch_size: 1
    backend: LMDB
  }
}
layer {
  name: "datan"
  type: "MVN"
  bottom: "data"
  top: "datan"
}
layer {
  name: "conv1"
  type: "Convolution"
  bottom: "datan"
  top: "conv1"
  param {
    lr_mult: 1.0
  }
  param {
    lr_mult: 2.0
  }
  convolution_param {
    num_output: 256
    pad: 0
    kernel_size: 16
    stride: 16
    weight_filler {
      type: "gaussian"
      mean:0.5
      std: 0.2
    }
    bias_filler {
      type: "constant"
      value: 0.0
    }
  }
}
layer {
  name: "conv2"
  type: "Convolution"
  bottom: "conv1"
  top: "conv2"
  param {
    lr_mult: 1.0
  }
  param {
    lr_mult: 2.0
  }
  convolution_param {
    num_output: 64
    pad: 1
    kernel_size: 3
    stride: 1
    weight_filler {
      type: "gaussian"
      std: 0.1
    }
    bias_filler {
      type: "constant"
      value: 0.0
    }
  }
}
layer {
  name: "relu2"
  type: "ReLU"
  bottom: "conv2"
  top: "conv2"
}
layer {
  name: "upsample"
  type: "Deconvolution"
  bottom: "conv2"
  top: "upsample"
  param {
    lr_mult: 0.2
  }
  convolution_param {
    num_output: 2
    pad: 0
    kernel_size: 16
    group: 2
    stride: 16
    weight_filler {
      type: "bilinear"
    }
    bias_filler {
      type: "constant"
      value: 0.0
    }
  }
}
layer {
  name: "loss"
  type: "SoftmaxWithLoss"
  bottom: "upsample"
  bottom: "label"
  top: "loss"
  exclude {
    stage: "deploy"
  }
  loss_param {
    normalize: false
  }
}
layer {
    type: 'Python'
    name: 'dice'
    bottom: 'upsample'
    bottom: 'label'
    top: 'dice'
    python_param {
      module: "digits_python_layers"
      layer: "Dice"
    }
    exclude { stage: "deploy" }
}
